ionodata/baseline.pth (torch, 4005 bytes, 4 tensors)

fc1.weight f4 [16, 34]
00000000: babc 49be c6e2 de3d 6c60 a5be 349c 213e
00000010: 3b87 e33d fd47 19bf 5491 debe b6bf 2bbf
00000020: eaeb abbe c636 59bc 1451 b23d f7ac db3e
00000030: 1edc 6cbe 5940 073e 2d26 96bd 64dd 82bf
00000040: ccd3 843e 7949 14bf 9b7b dbbd c1bd a63d
00000050: 2f88 36bf 4775 dd3e e335 9ebd f475 9ebc
00000060: e8c1 053d 0160 09bd db54 553f 9f78 d73e
00000070: c494 7bbd 1c59 0f3f 05a0 29bd 3967 4fbc
00000080: dd82 073d e73f bbbe 543a be3d c917 193e
00000090: 1fcb 32be 3991 e2be 00be c4be 90a3 5e3c
000000a0: 132e a4be f38a a1be ca35 703e d854 d43e
000000b0: 8af6 c63e 53e5 1ebf ec4b 83be 2179 5a3e
000000c0: f1ba fdbe 7a28 ddbd 6783 f3bd 55f1 2e3f
000000d0: 29b6 6e3e ab80 0d3f 925d abbd 8b1c 7d3e
000000e0: 6590 c6be 6830 31bf a962 d0be 68e9 163d
000000f0: 8320 533e 8cb6 fc3e 16ce ca3d 24af ffbd
00000100: f3ed e6be db9c d73e c762 9c3d 3231 703e
00000110: 63d7 d63e a6e8 de3d e270 7a3e ea42 9a3e
00000120: e8b8 5a3e 1c76 c23e e97a cb3e aa6f 473e
00000130: e367 b53e 9bb1 dd3e 0e18 a9bd 6ca5 46be
00000140: 38e8 5b3e 0fae 2fbe 5f2b 553e 1be8 8f3e
00000150: 8fb3 ae3e aa49 623c f752 093d 1f41 5b3d
00000160: 573c 6f3e 316b 85be 13df edbd bd36 f43d
00000170: 8134 cc3e 7766 003f f5f9 91be edf9 563e
00000180: b32e 8e3d e342 123e 24e6 9e3e 7d03 cf3e
00000190: 6ac4 2ebe 6498 15be 415e 95be 0dff 8abd
000001a0: 1fa5 d1be 82d2 1abe e691 4ebd 5a30 793d
000001b0: d8d3 3c3e 774a 023e 263b 96be 853b d13e
000001c0: 3d3f c9be d3b6 f43e d46f 903d 732d 8dbe
000001d0: 8b69 48be 24a9 da3d c515 b93e e0af c1be
000001e0: 8950 923e 6ff2 24be 947e 0abd 1349 0f3e
000001f0: 54e2 f53a de68 8f3f d88f 183f f811 26bf
00000200: 534c c23e e7b5 083f f1ba 04bf 723a 23bf
00000210: 1869 34bd 1979 6c3e 2ac8 7fbe 018a d73d
00000220: 7462 833c 85c4 0b3e 98a6 75be ffcb 1c3e
00000230: de0f 7e3d a3e7 993e d73a bcbd 51fe c93d
00000240: 8b01 b8be bce1 95be 2b72 f93e cd3a 283d
00000250: 106d 813e a7da 42be ff69 1dbd 37c4 103f
00000260: 3481 66be e89b 7fbd 3da3 01bc ffcf 1e3e
00000270: 83e7 f63e 01ad 493e 35de 3f3f 60da 0ebf
00000280: 1a5d 32bf 2172 ddbe 1dcd 3fbd 897f 3bbe
00000290: df7a 09bf 7daa c5be 5c16 3abe 3c66 c9be
000002a0: 503f b63e 6e67 593f 2472 82be 0090 cb38
000002b0: 9d60 4dbe 5113 44bf 2603 02bf aaf5 443f
000002c0: d8f3 8c3c e164 89be f869 953d 87d3 1b3f
000002d0: d985 b0bd ca1f 81be 438d d13d 6d93 4cbf
000002e0: 7507 35be 6bc5 083e a0a7 68bc 7eae fbbd
000002f0: 48e5 0b3e 2e37 24bf fcd8 623e 565a df3e
00000300: 2d07 c1be b114 97bd 1a99 23be 9039 e3be
00000310: f3c5 91be 38f4 01be d8f4 3ebd f1f9 82bd
00000320: 1b65 a2bc 65f5 8b3f d6b4 763e 49dd 033f
00000330: 7085 973d 7c06 0dbd 36ac 85ba 79a3 2b3e
00000340: 8502 533f b8e7 df3e 441d af3c 6b4b 253f
00000350: a881 1d3d 4d4b 503e fdec 1cbf 9570 263f
00000360: 507d 0dbf e772 743e 7f33 24bf ba4e 393d
00000370: 4833 04be c7c4 9bbd 024a d1be 58a3 e2be
00000380: c1b7 12bf 1466 35be 1517 923e 97e5 a8be
00000390: cccd 00be 5305 a6bd db0c 3ebe afbb 00be
000003a0: 812b 3e3e 22b3 eabc 683c b83a 4e0d 193c
000003b0: c1cf 0dbf 7208 0fbf 96c2 843e 1d8f 0f3e
000003c0: 5a7c 143e 0810 9b3e 8913 8b3e bbca ce3e
000003d0: ab0b 113f 26cf a03e bef2 ec3e 3132 843e
000003e0: 3686 b63c 13ef a7bd 60e5 a33e d995 8c3d
000003f0: a6c8 a03d aa00 d03e 4cc3 be3e ed9c 2c3e
-0.197009 0.10883097 -0.32300127 0.15782243 0.111097775 -0.5987547 -0.43470252 -0.670894
-0.33578426 -0.013257688 0.08706871 0.429054 -0.23130843 0.1320814 -0.073315 -1.0223813
0.25942838 -0.5792461 -0.10716935 0.081416614 -0.7130155 0.43253538 -0.07725122 -0.019343354
0.032655627 -0.033538822 0.83332604 0.42084214 -0.06142117 0.55995345 -0.041412372 -0.012658888
0.033083785 -0.3657219 0.09288469 0.1495048 -0.17460297 -0.4425142 -0.38426208 0.013588801
-0.32066402 -0.31551322 0.23458019 0.4147098 0.3885997 -0.6206867 -0.2564386 0.2133527
-0.49556687 -0.10798736 -0.118902974 0.68336993 0.23311676 0.55274457 -0.083674565 0.2471792
-0.3878204 -0.6921449 -0.40700272 0.036843687 0.20617871 0.49358022 0.09902589 -0.12484577
-0.45103416 0.4211186 0.07636028 0.23456267 0.41961202 0.10884218 0.24457124 0.30129176
0.21359599 0.37980735 0.3974221 0.1947619 0.35430822 0.43299565 -0.08256541 -0.19399041
0.21475303 -0.17156242 0.20817326 0.2810677 0.34121367 0.013811508 0.033526387 0.0535289
0.23362862 -0.26058343 -0.11614814 0.11924503 0.39883807 0.5015635 -0.28511015 0.20993777
0.06942501 0.14283328 0.31034958 0.4043235 -0.17067114 -0.14608914 -0.29173473 -0.06786928
-0.4094629 -0.15119365 -0.05043211 0.060837127 0.18440187 0.12723719 -0.29342002 0.40865722
-0.3930606 0.47795734 0.070525795 -0.27573738 -0.19571511 0.10676792 0.3614942 -0.37829494
0.28577068 -0.16108106 -0.03381212 0.1399272 0.0018759468 1.1203878 0.5959449 -0.6487117
0.37948856 0.5340256 -0.5184775 -0.63761055 -0.044045538 0.2309307 -0.249787 0.10524369
0.016038157 0.13649185 -0.23989332 0.15312193 0.06202685 0.30059537 -0.0919091 0.0986296
-0.35938677 -0.29273784 0.48719916 0.0410717 0.2527852 -0.19028722 -0.038431164 0.565494
-0.22510225 -0.062404543 -0.007912454 0.15509032 0.48223504 0.19694902 0.74948436 -0.55801964
-0.6967331 -0.43251136 -0.04682647 -0.1831037 -0.5370311 -0.38606635 -0.18172592 -0.3933581
0.3559518 0.84923446 -0.25477707 9.7066164e-05 -0.20056386 -0.76591974 -0.50786054 0.76937354
0.017206118 -0.26834777 0.072956026 0.6086964 -0.086192794 -0.25219566 0.10232022 -0.79912454
-0.17678626 0.13356559 -0.014200121 -0.12289141 0.13661683 -0.641467 0.22153085 0.43623608
-0.37700787 -0.073769934 -0.15976372 -0.44379854 -0.28471336 -0.12690818 -0.04662022 -0.06395329
-0.019823601 1.0934263 0.24092421 0.5150953 0.07398498 -0.034430012 -0.0010198418 0.16761579
0.8242572 0.43731475 0.02137626 0.64568204 0.038453728 0.20341225 -0.61299115 0.65015537
-0.55269337 0.23871957 -0.64141077 0.045241095 -0.12910187 -0.07605892 -0.40876776 -0.44265246
-0.57311636 -0.17714721 0.28533235 -0.32987663 -0.12578505 -0.08106484 -0.18559591 -0.12571596
0.18571283 -0.02864987 0.0014056088 0.009341551 -0.5539513 -0.5587226 0.25929707 0.14019437
0.14500561 0.30285668 0.27163342 0.40389046 0.5665843 0.31408042 0.46278948 0.25819543
0.022280794 -0.08199897 0.32010937 0.06864519 0.07850771 0.40625507 0.37258375 0.16856737

fc1.bias f4 [16]
00000000: 19dd 9a3e cce3 ad3e 9ec5 9abc fea5 043e
00000010: 570a 1d3e faf4 d53e f3cb fdbd 7033 d03d
00000020: 96e9 88bd c75d b63c ff19 de3e 04ce fa3d
00000030: 7675 6f3e 7d3d 833d b80b 4a3e e1f1 0abf
0.3024681 0.33962858 -0.01889306 0.12953946 0.15335976 0.41788465 -0.12392416 0.10166061
-0.06685178 0.022261513 0.43379208 0.122463256 0.23384652 0.06408212 0.19731033 -0.5427533

fc2.weight f4 [2, 16]
00000000: 5542 bf3f e509 a93f d309 15bf bae3 9f3f
00000010: 7595 a53f 2fd2 dc3f ddff 92bf 36d7 86be
00000020: 3972 9fbf 0977 9ebf d879 963f 3b30 0040
00000030: ad17 0440 f6a7 5dbe c3fc dbbe ea56 a3bf
00000040: 7c09 e0bf e696 aebf 6edb a93e 6069 c9bf
00000050: cd96 a2bf 2933 bbbf 94b0 663f ae6a fc3e
00000060: dfc0 813f 312d 9e3f 34c2 8dbf 7c52 fcbf
00000070: e8e0 05c0 1750 0f3f 96b6 1f3f 92b2 b23f
1.4942118 1.3206145 -0.58218116 1.2491372 1.2936236 1.7251643 -1.1484333 -0.26336068
-1.2456733 -1.2380077 1.1755934 2.0029438 2.063945 -0.21646103 -0.4296628 -1.2760899
-1.7502894 -1.36398 0.33175224 -1.5735283 -1.2702271 -1.4624988 0.90113187 0.4930014
1.0136985 1.2357541 -1.1074891 -1.9712672 -2.0918522 0.5598158 0.6238798 1.3960745

fc2.bias f4 [2]
00000000: df19 38bd 76ae a23c
-0.044946548 0.01985858
