k2jdata/dianet-11.pth (torch, 2723 bytes, 8 tensors)

fc1.weight f4 [3, 2]
000000 8e 0c ac 3e 00 00 00 00 1b 40 47 bf a1 2b a8 bd
       0.33603328 0.0 -0.7783219 -0.082114466
000010 00 00 00 00 20 5b 8a be
       0.0 -0.27022648

fc1.bias f4 [3]
000000 3c 0f 71 bc 8a 7d 1b 3f 30 6b cb be
       -0.014713105 0.6073843 -0.39730215

fc2.weight f4 [4, 3]
000000 e3 f4 15 bc 00 00 00 80 00 00 00 80 ef 60 c2 be
       -0.009152624 -0.0 -0.0 -0.3796458
000010 09 ed 0b 3f 00 00 00 80 00 00 00 80 56 7e 02 bd
       0.5465856 -0.0 -0.0 -0.031858765
000020 ed 31 65 bf 00 00 00 00 00 00 00 00 05 30 56 bf
       -0.89529306 0.0 0.0 -0.8366702

fc2.bias f4 [4]
000000 ca 5c 8f b9 47 f6 a6 3e 8f 72 11 3f 53 92 16 3c
       -0.0002734422 0.3260977 0.5681543 0.00919016

fc3.weight f4 [3, 4]
000000 0d d1 fd 3a 93 e5 81 3e 00 00 00 00 00 00 00 00
       0.001936467 0.25370464 0.0 0.0
000010 00 00 00 80 2e f4 60 3f ba e1 63 be 00 00 00 00
       -0.0 0.8787259 -0.22254077 0.0
000020 00 00 00 80 00 00 00 00 9c a8 7d 3f ee 7b 8b 3e
       -0.0 0.0 0.990854 0.27242988

fc3.bias f4 [3]
000000 f1 3a 88 be f6 6b be bc 21 83 98 3d
       -0.2660747 -0.02324484 0.07446886

fc4.weight f4 [2, 3]
000000 a8 e5 16 3f c4 a6 b9 bd 00 00 00 00 00 00 00 80
       0.5894418 -0.09065011 0.0 -0.0
000010 c9 f9 7f bf e5 b4 7f bf
       -0.99990517 -0.998854

fc4.bias f4 [2]
000000 0b ff 82 3e 55 98 7f 3f
       0.25585207 0.99841815
