k2jdata/dianet_no.pth (torch, 2723 bytes, 8 tensors)

fc1.weight f4 [3, 2]
0	0x3f0de189	0.55422264
1	0x00000000	0.0
2	0xbf09c2ad	-0.53812677
3	0x3e75cccf	0.2400391
4	0x00000000	0.0
5	0x3f331513	0.6995403

fc1.bias f4 [3]
0	0xbe6dec50	-0.23234677
1	0x3ed099ad	0.40742245
2	0x3f3319b7	0.6996111

fc2.weight f4 [4, 3]
0	0xc0f184e4	-7.547472
1	0x00000000	0.0
2	0x80000000	-0.0
3	0x406314ed	3.5481522
4	0x404155b5	3.0208561
5	0x00000000	0.0
6	0x00000000	0.0
7	0xbec4a06c	-0.38403642
8	0xbf5f3519	-0.87190396
9	0x80000000	-0.0
10	0x00000000	0.0
11	0xc1073fa7	-8.45304

fc2.bias f4 [4]
0	0xc0a1bf8f	-5.0546336
1	0x3f6fcd9c	0.9367311
2	0x3f92f33e	1.1480482
3	0x3fe294c3	1.7701648

fc3.weight f4 [3, 4]
0	0x3f4f0159	0.8086143
1	0xbf41da08	-0.75723314
2	0x00000000	0.0
3	0x80000000	-0.0
4	0x80000000	-0.0
5	0x3efc8220	0.49318027
6	0xbf1e10c1	-0.61744314
7	0x80000000	-0.0
8	0x00000000	0.0
9	0x00000000	0.0
10	0xbfb9f6a1	-1.452839
11	0xbc57ac34	-0.013163615

fc3.bias f4 [3]
0	0x3fd77c21	1.6834756
1	0xbd03436a	-0.032046713
2	0xbec7ae65	-0.3900024

fc4.weight f4 [2, 3]
0	0x3eecf3b0	0.4627967
1	0x3f9924c3	1.1964344
2	0x80000000	-0.0
3	0x80000000	-0.0
4	0xc02866ff	-2.6312864
5	0x3fbcf11c	1.4761081

fc4.bias f4 [2]
0	0xbf3d0701	-0.7383881
1	0x3fd73ea0	1.6815987
