kmeans_data/baseline.pth (torch, 2463 bytes, 5 tensors)

fc1.weight f4 [8, 6]
-1.523979 -1.4203984 -1.2796621 1.6979069 1.2665602 1.2340034 5.2036033 1.4594673
0.15789767 2.1871305 -0.08113473 -1.0167131 -2.6569903 -1.5626786 -1.50344 1.4920738
1.4641604 1.4266046 -2.9971511 -4.013532 -4.1025777 4.4920645 3.0600648 4.692511
4.2209425 3.906663 5.4376774 3.381814 5.3565955 8.281691 -3.3279743 1.4986202
5.2574396 -4.8148127 0.9304494 4.8771844 3.256569 2.2572134 4.1570544 -2.3113308
-3.3459759 -2.399747 3.7131734 0.3237065 -2.2792974 4.406 -0.25403967 -1.506203
00000000: be11 c3bf 9dcf b5bf f8cb a3bf 0355 d93f
00000010: a51e a23f d3f3 9d3f eb83 a640 d3cf ba3f
00000020: edaf 213e f2f9 0b40 f729 a6bd a823 82bf
00000030: 210c 2ac0 da05 c8bf b970 c0bf 46fc be3f
00000040: 9c69 bb3f fb9a b63f 53d1 3fc0 db6e 80c0
00000050: 5148 83c0 febe 8f40 1ad8 4340 0d29 9640
00000060: f611 8740 c406 7a40 7401 ae40 a46f 5840
00000070: 3b69 ab40 ce81 0441 88fd 54c0 c9d2 bf3f
00000080: f23c a840 f212 9ac0 ef31 6e3f e511 9c40
00000090: a06b 5040 2f76 1040 9706 8540 d8ec 13c0
000000a0: 7824 56c0 7495 19c0 a2a4 6d40 dcbc a53e
000000b0: 02e0 11c0 f4fd 8c40 7d11 82be 43cb c0bf

fc1.bias f4 [8]
1.9964011 -3.0266087 -1.8048375 0.371575 7.1470294 -1.292349 -0.32085449 1.2776889
00000000: 128a ff3f f5b3 41c0 ea04 e7bf 143f be3e
00000010: 77b4 e440 b16b a5bf 0a47 a4be 4f8b a33f

fc2.weight f4 [4, 8]
-2.9784586 0.7520102 3.625785 -2.2516096 0.9504532 0.1632184 -2.5610683 0.2638769
-3.7927768 -2.1455426 6.6024756 -3.8407917 0.4257248 -0.8980249 1.5770768 -0.6816508
0.6201119 -0.5509687 -5.5866528 2.549554 -1.6244637 -1.0618826 1.5487787 -1.0936605
-1.6665479 0.98694676 5.405408 -2.5057266 1.4397881 1.4197966 -3.0460138 2.1279716
00000000: 119f 3ec0 be83 403f dd0c 6840 5f1a 10c0
00000010: e750 733f b922 273e 8be8 23c0 df1a 873e
00000020: dbbc 72c0 9250 09c0 7b47 d340 88cf 75c0
00000030: 9af8 d93e f6e4 65bf a7dd c93f ab80 2ebf
00000040: a7bf 1e3f 490c 0dbf dcc5 b2c0 e52b 2340
00000050: 6dee cfbf c5eb 87bf 613e c63f 11fd 8bbf
00000060: 7151 d5bf 8ba8 7c3f 1af9 ac40 d35d 20c0
00000070: fa4a b83f e5bb b53f e4f1 42c0 b030 0840

fc2.bias f4 [4]
0.547848 0.58631194 -1.408932 0.60929614
00000000: c43f 0c3f 8a18 163f e257 b4bf d5fa 1b3f

fc3.weight f4 [1, 4]
1.8476825 2.3278468 -0.86930865 1.3204666
00000000: dc80 ec3f 71fb 1440 038b 5ebf 0d05 a93f
