kmeans_data/dianet-11.pth (torch, 2787 bytes, 7 tensors)

fc1.weight f4 [4, 5]
00000000: 0000 803f 0000 0000 0000 0000 0000 0000
00000010: 0000 0000 9256 88bd bd73 7fbf 79d7 7fbf
00000020: 0000 0000 0000 0000 0000 0080 0000 0080
00000030: 0000 80bf d6f7 cbbc 7df9 7f3f 0000 0080
00000040: 0000 0080 0000 0080 0000 0080 22ef 7fbf
1.0 0.0 0.0 0.0 0.0 -0.06657137 -0.9978598 -0.9993816
0.0 0.0 -0.0 -0.0 -1.0 -0.02489845 0.99990064 -0.0
-0.0 -0.0 -0.0 -0.9997426

fc1.bias f4 [4]
00000000: 98da 1fbe 55f6 7f3f 7ecb 7fbf ca93 433f
-0.1561073 0.9998525 -0.9991988 0.76397383

fc2.weight f4 [3, 5]
00000000: 7cfa 7f3f adfd 7fbf 0000 0000 0000 0000
00000010: 0000 0000 0000 0000 0000 80bf 0000 80bf
00000020: 0000 80bf 0000 0000 0000 0080 0000 0080
00000030: 0000 0080 5afc 7f3f bafe 7f3f
0.99991584 -0.99996454 0.0 0.0 0.0 0.0 -1.0 -1.0
-1.0 0.0 -0.0 -0.0 -0.0 0.9999443 0.99998057

fc2.bias f4 [3]
00000000: 04dd f5bc bf05 18bf 2826 1abf
-0.030012615 -0.5938377 -0.6021447

fc3.weight f4 [2, 3]
00000000: 13d3 7f3f 0000 80bf 0000 0000 0000 0080
00000010: 0000 803f 7afc 7f3f
0.9993145 -1.0 0.0 -0.0 1.0 0.99994624

fc3.bias f4 [2]
00000000: d720 dc3c 1f98 633e
0.026871128 0.22225998

fc4.weight f4 [1, 2]
00000000: bd3f c8be 1bfd 7f3f
-0.39111128 0.99995583
