kmeans_data/dianet.pth (torch, 2757 bytes, 7 tensors)

fc1.weight f4 [4, 5]
0	0xc01f344c	-2.487567
1	0x3986fe9b	0.00025748168
2	0x39731ab2	0.0002318423
3	0x39d7b4d1	0.00041142714
4	0x39c632b6	0.00037803286
5	0xc0150740	-2.3285675
6	0x3d9e9e91	0.07745088
7	0x400ec5b4	2.2308168
8	0xb9be4ba3	-0.00036295978
9	0xb9b91e67	-0.000353086
10	0xba05d8c8	-0.000510585
11	0xb9d12dc1	-0.00039897676
12	0xc09a67c6	-4.8251677
13	0xbd8de477	-0.06928342
14	0x40bb1263	5.8459945
15	0xb9807113	-0.0002449831
16	0xb95e44f8	-0.00021197263
17	0xb9436ece	-0.00018637927
18	0xb9ca2b76	-0.00038560823
19	0xbfa556a2	-1.2917063

fc1.bias f4 [4]
0	0x3fd83457	1.6890973
1	0xbfb44e35	-1.4086367
2	0xc03139eb	-2.76916
3	0x3ffc7527	1.9723252

fc2.weight f4 [3, 5]
0	0x40339ab3	2.806317
1	0x3f0dab28	0.5533929
2	0x39b18097	0.00033855878
3	0x3a19bbf1	0.0005864492
4	0x39ab77a2	0.00032704795
5	0xb9ecc974	-0.00045163522
6	0x40a1076c	5.032156
7	0xbea892b5	-0.3292443
8	0xc0880385	-4.2504296
9	0xb9d880a9	-0.0004129459
10	0x39ac317b	0.00032843262
11	0x39703ac2	0.00022910073
12	0x399b524b	0.00029625217
13	0xbf44b777	-0.76842445
14	0xc067fc67	-3.6247804

fc2.bias f4 [3]
0	0xbfe14b22	-1.7601054
1	0x3f9010f8	1.1255178
2	0x3f8a2aad	1.0794274

fc3.weight f4 [2, 3]
0	0xc02d03c9	-2.703356
1	0xbd220fe0	-0.03956592
2	0xb99e7697	-0.00030224465
3	0xb9b7a0d8	-0.00035024318
4	0x3f56041e	0.8360003
5	0xc0619308	-3.524599

fc3.bias f4 [2]
0	0x3e45b4b0	0.19307208
1	0xbcfcd118	-0.030861422

fc4.weight f4 [1, 2]
0	0x3ffa086c	1.953382
1	0x40c89397	6.2680163
