kmeans_data/dianet01.pth (torch, 2777 bytes, 7 tensors)

fc1.weight f4 [4, 5]
0	0x00000000	0.0
1	0x80000000	-0.0
2	0x80000000	-0.0
3	0x80000000	-0.0
4	0x80000000	-0.0
5	0x3c03b769	0.008039334
6	0x3c16f8b0	0.009214565
7	0x3c28698b	0.01027907
8	0x80000000	-0.0
9	0x80000000	-0.0
10	0x80000000	-0.0
11	0x80000000	-0.0
12	0x3a4b4e66	0.0007755518
13	0x3a80c451	0.0009824132
14	0x3a4bbc16	0.00077718624
15	0x80000000	-0.0
16	0x80000000	-0.0
17	0x80000000	-0.0
18	0x80000000	-0.0
19	0x3ea4e6fe	0.32207483

fc1.bias f4 [4]
0	0x00000000	0.0
1	0x3c4e41a3	0.012588891
2	0x3a522c5c	0.00080174743
3	0x3e94f707	0.29094717

fc2.weight f4 [3, 5]
0	0x00000000	0.0
1	0x00000000	0.0
2	0x80000000	-0.0
3	0x80000000	-0.0
4	0x80000000	-0.0
5	0x80000000	-0.0
6	0x3b1c81cd	0.0023881078
7	0x3cb2ff96	0.021850388
8	0x3e1d27a2	0.1534715
9	0x80000000	-0.0
10	0x80000000	-0.0
11	0x80000000	-0.0
12	0x80000000	-0.0
13	0x00000000	0.0
14	0x00000000	0.0

fc2.bias f4 [3]
0	0x00000000	0.0
1	0x3b67e32b	0.0035383205
2	0x00000000	0.0

fc3.weight f4 [2, 3]
0	0x3c49cafc	0.012316462
1	0x3de5444f	0.111946695
2	0x80000000	-0.0
3	0x80000000	-0.0
4	0x3a375970	0.0006994223
5	0x3a43dce0	0.00074715726

fc3.bias f4 [2]
0	0x3c4de773	0.012567389
1	0x3a43de4f	0.0007471786

fc4.weight f4 [1, 2]
0	0x3e2381c1	0.15967466
1	0x3c81c817	0.01584248
