sobel_data/baseline.pth (torch, 3289 bytes, 7 tensors)

fc1.weight f4 [8, 9]
0	0xbebcae52	-0.36851746
1	0xbe482fa3	-0.19549422
2	0xbf86fdc8	-1.0546198
3	0x3d20a950	0.03922397
4	0x3eba101c	0.36340415
5	0xbe9cd5d3	-0.30631885
6	0xbfaecab4	-1.365561
7	0xbf5c876c	-0.8614414
8	0xbf5360bf	-0.825695
9	0xbf6ea81c	-0.93225265
10	0xbee44783	-0.4458581
11	0xbf9541be	-1.1660688
12	0xbf0ae850	-0.5426073
13	0x3ec6b930	0.38813162
14	0xbe369ee0	-0.17834044
15	0xbf8a74b3	-1.0816864
16	0x3cee2acd	0.029073143
17	0xbf08dbcb	-0.5346038
18	0xbf12b3d1	-0.5730563
19	0xbf0476a8	-0.51743555
20	0xbf62a3c7	-0.88531154
21	0xbeebf2ee	-0.46083778
22	0x3f17db0e	0.59318626
23	0xbe3573e0	-0.17719984
24	0xbfaec6c7	-1.3654412
25	0xbf2f5496	-0.6848844
26	0xbf1ad526	-0.6048149
27	0xbf167f7d	-0.5878828
28	0xbeb3d3f1	-0.35122636
29	0xbf082bbd	-0.5319174
30	0xbeffd9c2	-0.49970824
31	0x3e87c46a	0.2651704
32	0x3dbc9073	0.09207239
33	0xbfe10791	-1.7580434
34	0xbf27778b	-0.65416783
35	0xbf22b08d	-0.63550645
36	0xbf699f24	-0.91258454
37	0xbf2aa279	-0.66654164
38	0xbf869ee2	-1.0517237
39	0xbeaba22c	-0.33522165
40	0x3ecc4a4d	0.39900437
41	0x3e4d4c8a	0.20048729
42	0xbf90bb79	-1.1307212
43	0xbeeec177	-0.46631977
44	0xbf1e4c11	-0.6183482
45	0x3f39876a	0.7247225
46	0x3eb84cbe	0.3599605
47	0x3f1204ae	0.5703839
48	0x3f027407	0.50958294
49	0xbed9857d	-0.42484656
50	0xbeae9089	-0.34094647
51	0x3f937268	1.1519289
52	0x3f41a247	0.7563824
53	0x3f6acf5f	0.91722673
54	0xbf4c3334	-0.7976563
55	0xbee8513a	-0.4537447
56	0xbf507b18	-0.81437826
57	0xbe95c064	-0.29248345
58	0x3dc0ebdc	0.094199866
59	0x3e483a89	0.1955358
60	0xbfc7be06	-1.5604866
61	0xbee068b9	-0.43829897
62	0xbf2e5b1c	-0.6810777
63	0xbe8b63b0	-0.27224493
64	0xbebb8c02	-0.36630255
65	0xbf02792c	-0.50966144
66	0x3df102c5	0.11768106
67	0x3e6583ca	0.22413555
68	0x3d4b95ae	0.049703293
69	0xbfc14752	-1.509989
70	0xbf6262aa	-0.884318
71	0xbfb1753d	-1.3863903

fc1.bias f4 [8]
0	0x400563fb	2.0842273
1	0x4003e522	2.0608602
2	0x4014e0a2	2.3262105
3	0x40136377	2.3029459
4	0x40117e77	2.2733438
5	0xbfe8b8cc	-1.8181396
6	0x4019ab4d	2.4010804
7	0x40021c24	2.0329676

fc2.weight f4 [8, 8]
0	0xc0659d80	-3.587738
1	0xc0742830	-3.8149529
2	0xc0741e34	-3.8143435
3	0xc042324c	-3.0343199
4	0xc068d425	-3.6379483
5	0x40182450	2.3772163
6	0xc074f38a	-3.8273644
7	0xc05570e1	-3.3350146
8	0xc041c4f3	-3.0276458
9	0xc042beaf	-3.0428884
10	0xc064026a	-3.5626473
11	0xc03091c9	-2.758898
12	0xc05fcf28	-3.4970188
13	0x3fc327d7	1.5246533
14	0xc04f1ad7	-3.2360132
15	0xc04455ca	-3.0677361
16	0xc063ea11	-3.5611613
17	0xc056d5d1	-3.3568003
18	0xc04a352d	-3.1594956
19	0xc05539f9	-3.3316634
20	0xc0518031	-3.2734492
21	0x3fbc35f3	1.4703964
22	0xc0690677	-3.6410196
23	0xc03733f9	-2.8625472
24	0x4043ccf9	3.0593855
25	0x40503fe6	3.2539
26	0x40482b95	3.12766
27	0x40427ba2	3.038796
28	0x4058aee7	3.3856752
29	0xbfb8f988	-1.4451151
30	0x404be37c	3.1857595
31	0x404b0bd2	3.1725965
32	0xc035200d	-2.8300812
33	0xc04408d5	-3.063039
34	0xc0640c98	-3.5632687
35	0xc0535725	-3.3021939
36	0xc056950b	-3.3528469
37	0x3fadca26	1.3577316
38	0xc0486599	-3.131201
39	0xc048c6c3	-3.1371315
40	0x4025aee0	2.5887985
41	0x402c52d9	2.6925566
42	0x402c9ef9	2.697203
43	0x402444e6	2.5667052
44	0x404a64eb	3.1624095
45	0xbfa39b50	-1.2781773
46	0x403a5007	2.9111345
47	0x403603da	2.843985
48	0x40540b9d	3.3132088
49	0x404fc50b	3.2464015
50	0x404ec4e3	3.230767
51	0x404c7e80	3.195221
52	0x4059e779	3.404753
53	0xbfe90077	-1.8203267
54	0x403f4fe5	2.9892514
55	0x403e2f93	2.9716537
56	0x404bce8a	3.1844811
57	0x405e2bb6	3.471418
58	0x4057e387	3.3732622
59	0x4056bb9f	3.3552015
60	0x406bd144	3.6846476
61	0xc0194291	-2.394688
62	0x4057744f	3.366474
63	0x4043c006	3.0585952

fc2.bias f4 [8]
0	0x3f83c489	1.0294353
1	0x3e919d43	0.28440294
2	0x3f4b5b86	0.7943653
3	0xbf83db47	-1.0301293
4	0x3ee42803	0.44561777
5	0xbf47090c	-0.7774818
6	0xbf4fa7e6	-0.8111557
7	0xbf5e443e	-0.8682288

fc3.weight f4 [2, 8]
0	0x3fc8454a	1.5646145
1	0x3f83a12f	1.0283564
2	0x3f6b861e	0.9200152
3	0xbd5af1ab	-0.05345313
4	0x3f69748e	0.91193473
5	0xbed0c117	-0.40772316
6	0xbe965b13	-0.2936636
7	0xbddd5017	-0.108062916
8	0xc04d7584	-3.2102976
9	0xc002686b	-2.0376232
10	0xc01f89db	-2.492789
11	0x3eb8e1fa	0.36109906
12	0xc00d944a	-2.2121758
13	0xbdff9ab3	-0.124806784
14	0x3e57d535	0.21077426
15	0x3e883462	0.26602465

fc3.bias f4 [2]
0	0x3e7af7d6	0.24508604
1	0xbdc9ed1e	-0.0985968

fc4.weight f4 [1, 2]
0	0xbe67dfdf	-0.22643994
1	0x3e8f748f	0.28018615
