sobel_data/baseline9882.pth (torch, 3329 bytes, 7 tensors)

fc1.weight f4 [8, 9]
00000000: 67ea b13e da20 023f 9d08 333f 350f 393e
00000010: f29e 963e 51d7 363e 91df 803e 0497 1c3f
00000020: fd09 203f 534b 7c3e 58d7 963e 77c7 0e3f
00000030: b2c2 e43e ac29 9f3e 805d fd3e 6b29 8c3d
00000040: af1b 063c 2314 0c3f 6614 e93e 3683 273f
00000050: 97cf c53e aa2a fb3e 9ce9 c13e a770 053f
00000060: efa9 cf3e 9413 373f 1a47 9b3d 0473 c13e
00000070: ea5e fa3d eba6 b33d 536f b23e fb28 003f
00000080: 5698 113e eb93 693d ae40 ea3e e731 023f
00000090: b674 fa3e 3288 693d 6c42 31bc 22f3 a83e
000000a0: 3bae cd3e 1709 0d3f 247a 503e ee0d 093f
000000b0: 5ddd 8f3e 3b3e fd3e e8ec 773e 95be eb3e
000000c0: 584a a73e 2dc6 5b3e f488 a73e 4c22 2d3f
000000d0: e230 233f 2bfd 923e 839c 273e 5d4f ba3e
000000e0: a8ac 003f 0274 353e 5e00 553e f0ec ff3e
000000f0: 9f38 3d3d f81b 1a3f 4a2a ef3e 0d57 ed3e
00000100: e05a 513b 621c 193e 99dc 933e 9478 cbbd
00000110: f5a4 963e 235b bf3e 7450 d63e 7fb5 3a3e
0.34749147 0.5083138 0.6993502 0.18072207 0.2941814 0.17855574 0.25170568 0.6116793
0.6251524 0.24638109 0.2946117 0.5577311 0.4467979 0.3108648 0.49485397 0.06843837
0.008185311 0.54718226 0.45523375 0.65434587 0.3863494 0.49055988 0.37873542 0.5212502
0.40559337 0.7151425 0.07581921 0.37783062 0.12225135 0.087720715 0.3485056 0.5006253
0.14218268 0.05702583 0.45752472 0.50857395 0.48917168 0.05701465 -0.010819059 0.32997996
0.4017199 0.55091995 0.20359093 0.5353688 0.28098574 0.4946154 0.24211466 0.4604384
0.32673907 0.21462317 0.32721674 0.6763046 0.63746464 0.28708777 0.16368298 0.36388674
0.5026345 0.17720035 0.20800921 0.49985456 0.046196576 0.60198927 0.46711951 0.46355477
0.0031945035 0.14952233 0.2887924 -0.09935108 0.29422727 0.3737422 0.41858256 0.18233298

fc1.bias f4 [8]
00000000: bfdb ee3e 8e1a 2a3e eae6 253f 6ae2 9d3d
00000010: 40d6 9c3e 26b0 523e 3eb2 603d 9aae 0abe
0.46652028 0.16611692 0.6480547 0.07709201 0.3063221 0.20575008 0.054857485 -0.13543168

fc2.weight f4 [8, 8]
00000000: d460 1a3f 43a5 f93e f8b9 e03e e416 9e3e
00000010: 41f6 903e d2b3 143f 6328 983e d1af 2d3e
00000020: 5d51 0c3e 8a42 243f 73e6 3e3f e7d3 313f
00000030: e698 7b3e 0a4c 6c3e 2645 113f da85 2f3f
00000040: a5f8 c03e 6170 f83e 36db 1bbe 7ab1 043e
00000050: 6d2c 24bc 80cc 1dbe 366d bbbd e8c8 583e
00000060: 21d4 653e 726a 0fbd 82b1 033d 7540 193c
00000070: 1f07 04be 125c c0be 240b 4dbd e314 2c3e
00000080: 23fb 263f 89a5 003f 5bb7 873e 7e7c 5e3e
00000090: fb1e 023f ad54 9e3e cd69 6a3f 871e 963e
000000a0: b4e8 63be a3e2 873e 292e 2d3e 8df1 3b3e
000000b0: f35e 4d3e f580 033e 21a7 bb3e 376f 963d
000000c0: 9358 cc3e b481 eb3e 51b1 e03e db87 bc3e
000000d0: 91c9 d53e 6cbf 153f aa68 36bd e35d 913e
000000e0: 75fb 39be 16fe e23d 3114 c9be 104c c2bd
000000f0: ee59 043e ad3b a73d afb9 133e 8607 acbe
0.60304 0.48758897 0.43891883 0.3087684 0.28312877 0.58086884 0.29718313 0.169616
0.13702913 0.6416403 0.7457039 0.6946396 0.24570045 0.23075882 0.5674614 0.68563616
0.376897 0.48523238 -0.15220341 0.12958327 -0.010020358 -0.15410042 -0.0915169 0.2117039
0.22444202 -0.035013624 0.032151707 0.009353747 -0.12893341 -0.37570244 -0.050059453 0.16804843
0.65226954 0.50252587 0.26507077 0.21727178 0.5082852 0.30923977 0.9156769 0.29320166
-0.22256738 0.26540098 0.1691214 0.18353863 0.20055752 0.12842162 0.36650947 0.07345431
0.39911327 0.45997393 0.43885282 0.368224 0.41755345 0.5849521 -0.04453341 0.28391942
-0.1816233 0.11083619 -0.39273217 -0.09487164 0.1292493 0.08165679 0.14426301 -0.3359949

fc2.bias f4 [8]
00000000: 4b99 333e 361c 703e e105 0a3e e679 96be
00000010: 04b1 6c3e 829f 2e3d 0ea8 073f 6380 64bd
0.17538945 0.23448262 0.13478805 -0.29389876 0.23114401 0.042632587 0.52990806 -0.0557865

fc3.weight f4 [2, 8]
00000000: 6e74 36bf cf21 90be 2d60 b6bd d31a a7bd
00000010: 22cb d8be a38d 16be 7e2c d1be 4794 45bd
00000020: b897 90be 66c2 16bf 4995 0abf 587f 2fbe
00000030: fc91 01bf 1580 00be b6ee c03d 17bc c0be
-0.7127141 -0.28150794 -0.08905063 -0.08159413 -0.42342478 -0.14702468 -0.40854257 -0.04823711
-0.28240752 -0.5889038 -0.5413404 -0.17138422 -0.5061338 -0.1254886 0.094205305 -0.376435

fc3.bias f4 [2]
00000000: a6f4 a3be 3e87 85be
-0.3202259 -0.26079744

fc4.weight f4 [1, 2]
00000000: 26cb bcbe b99e 663c
-0.3687374 0.014075928
