fftdata5/dianet-11.pt (torch, 3231 bytes, 10 tensors)

fc1.weight f4 [2, 1]
00000000: 0000 803f 0000 803f
1.0 1.0

fc1.bias f4 [2]
00000000: 37a3 94be 3e4e 74be
-0.29030773 -0.23857972

fc2.weight f4 [3, 2]
00000000: 0000 803f 0000 0000 0000 80bf 0000 80bf
00000010: 0000 0000 0000 803f
1.0 0.0 -1.0 -1.0 0.0 1.0

fc2.bias f4 [3]
00000000: 8527 f1bd dcb0 18be bb02 19bd
-0.11775116 -0.14911216 -0.03735612

fc3.weight f4 [4, 3]
00000000: 0000 80bf 0000 0000 0000 0080 0000 803f
00000010: 0000 80bf 0000 0000 0000 0000 0000 80bf
00000020: 0000 803f 0000 0080 0000 0000 0000 80bf
-1.0 0.0 -0.0 1.0 -1.0 0.0 0.0 -1.0
1.0 -0.0 0.0 -1.0

fc3.bias f4 [4]
00000000: 7e60 81bc b07c 0cbf 7ebe f13e 0bcd 243c
-0.015793081 -0.5487776 0.47215647 0.010058652

fc4.weight f4 [3, 4]
00000000: 0000 80bf 0000 803f 0000 0000 0000 0080
00000010: 0000 0000 0000 80bf 0000 80bf 0000 0000
00000020: 0000 0080 0000 0000 0000 803f 0000 80bf
-1.0 1.0 0.0 -0.0 0.0 -1.0 -1.0 0.0
-0.0 0.0 1.0 -1.0

fc4.bias f4 [3]
00000000: 8db4 20bd de4b 63bf 373e 52bf
-0.039234687 -0.8878764 -0.8212618

fc5.weight f4 [2, 3]
00000000: 34cd 5d3f 0000 803f 0000 0080 0000 0080
00000010: 3224 0b3f 0000 80bf
0.8664124 1.0 -0.0 -0.0 0.54352105 -1.0

fc5.bias f4 [2]
00000000: 0000 803f b010 ebbe
1.0 -0.4591117
