fftdata5/dianet-nolimit.pt (torch, 3291 bytes, 10 tensors)

fc1.weight f4 [2, 1]
0	0x3fdd7ba8	1.7303362
1	0x402cae45	2.6981366

fc1.bias f4 [2]
0	0xbf2374a0	-0.6384983
1	0xbe8a87b4	-0.27056658

fc2.weight f4 [3, 2]
0	0x3f62753c	0.88460135
1	0x00000000	0.0
2	0xbf621632	-0.8831512
3	0xbf955e61	-1.1669427
4	0x80000000	-0.0
5	0x3fad6d8e	1.3549058

fc2.bias f4 [3]
0	0xbce4345b	-0.027856996
1	0xbf681682	-0.90659344
2	0xbf303079	-0.68823963

fc3.weight f4 [4, 3]
0	0xba022ef9	-0.0004966106
1	0x80000000	-0.0
2	0x80000000	-0.0
3	0x3f31de33	0.69479674
4	0x3f127329	0.5720697
5	0x00000000	0.0
6	0x00000000	0.0
7	0x3f4c7a2f	0.7987394
8	0xbf964215	-1.1738917
9	0x80000000	-0.0
10	0x00000000	0.0
11	0x402db843	2.7143714

fc3.bias f4 [4]
0	0xb769d494	-1.3937377e-05
1	0x3ee3ee26	0.4451763
2	0x3e10e329	0.14149155
3	0xbf31d988	-0.6947255

fc4.weight f4 [3, 4]
0	0x38d2fe3e	0.000100609366
1	0x3fe938f2	1.8220503
2	0x00000000	0.0
3	0x80000000	-0.0
4	0x00000000	0.0
5	0xbec63537	-0.38712475
6	0x3eca26e4	0.39482796
7	0x80000000	-0.0
8	0x00000000	0.0
9	0x80000000	-0.0
10	0xbfadcb97	-1.3577756
11	0x3fa39812	1.2780783

fc4.bias f4 [3]
0	0xbeb37df2	-0.35057026
1	0x3ede9330	0.4347167
2	0x3f2874f9	0.65803486

fc5.weight f4 [2, 3]
0	0x3f875b98	1.0574827
1	0x3fac8a9a	1.3479798
2	0x80000000	-0.0
3	0x00000000	0.0
4	0xbf12b9d5	-0.5731481
5	0xbed913fe	-0.42398065

fc5.bias f4 [2]
0	0x3f15bca3	0.5849096
1	0xbde6ab6f	-0.11263167
