fftdata4/baseline.pth (torch, 2207 bytes, 6 tensors)

fc1.weight f4 [4, 1]
-6.174133 -7.2780027 -6.811035 7.3713913
00000000: 7f92 c5c0 66e5 e8c0 00f4 d9c0 70e2 eb40

fc1.bias f4 [4]
1.6997101 2.3082945 1.7946392 -0.66159606
00000000: 1a90 d93f 19bb 1340 bdb6 e53f 5c5e 29bf

fc2.weight f4 [4, 4]
1.4925637 1.4028361 2.998754 -3.7673874 -2.441112 -2.950975 -3.7881918 2.0591156
-2.2639658 -0.12548245 -1.4866394 4.461524 0.05677314 1.0471835 1.0202087 -0.7379877
00000000: 540c bf3f 2290 b33f 96eb 3f40 e01c 71c0
00000010: 2e3b 1cc0 c6dc 3cc0 bc71 72c0 8dc8 0340
00000020: d1e4 10c0 797e 00be 334a bebf cec4 8e40
00000030: f48a 683d 1c0a 863f 3396 823f c3ec 3cbf

fc2.bias f4 [4]
-0.45983365 0.19349213 1.5122662 0.22040743
00000000: 516f ebbe cd22 463e f091 c13f 7cb2 613e

fc3.weight f4 [2, 4]
-0.07870678 1.7995696 -2.1020877 0.0829949 1.7176684 -0.61676705 -0.32820654 -0.12549505
00000000: 0531 a1bd 4c58 e63f 9b88 06c0 3bf9 a93d
00000010: 8fdc db3f 72e4 1dbf b00a a8be c681 00be

fc3.bias f4 [2]
0.9093871 -0.40079045
00000000: 98cd 683f 6834 cdbe
