fftdata4/dianet_0_1.pth (torch, 2159 bytes, 6 tensors)

fc1.weight f4 [2, 1]
0	0xba57416f	-0.00082113495
1	0xba405adc	-0.0007337758

fc1.bias f4 [2]
0	0x3e4b5f2d	0.19860525
1	0x3e291288	0.16510975

fc2.weight f4 [3, 2]
0	0x9a3695cb	-3.775772e-23
1	0x9b6a1b31	-1.9364812e-22
2	0x3a4e52a8	0.0007870593
3	0x3c8447f3	0.01614759
4	0x38bf9c57	9.13671e-05
5	0x3a4eea64	0.00078932033

fc2.bias f4 [3]
0	0x9a41f13e	-4.010634e-23
1	0x3f052820	0.5201435
2	0x3b44cbf9	0.0030028804

fc3.weight f4 [2, 3]
0	0x9bae4265	-2.8828792e-22
1	0x3e53198b	0.20615213
2	0x3a079815	0.00051725033
3	0x9ba08664	-2.6556628e-22
4	0x3c88ba81	0.016690494
5	0x3d21c97d	0.039498795

fc3.bias f4 [2]
0	0x3e258b8e	0.16166517
1	0x3ee55664	0.44792473
