fftdata4/dianet-11.pth (torch, 2151 bytes, 6 tensors)

fc1.weight f4 [2, 1]
0	0xbf8019ec	-1.0007911
1	0x3f801237	1.0005559

fc1.bias f4 [2]
0	0x3df7d7bb	0.12101694
1	0xbf371c5a	-0.71527636

fc2.weight f4 [3, 2]
0	0x3f800e6c	1.0004401
1	0xb9248fe1	-0.00015693858
2	0x3f801013	1.0004905
3	0xbf80132d	-1.0005852
4	0xba78346f	-0.00094682624
5	0x3f801cca	1.0008786

fc2.bias f4 [3]
0	0x3ee9407b	0.45557007
1	0x3f2f13cd	0.6838959
2	0x3ecd5dce	0.4011063

fc3.weight f4 [2, 3]
0	0x3f80116f	1.000532
1	0xbf7bc713	-0.9835064
2	0xb9bbe5aa	-0.00035838532
3	0x3a77ee94	0.0009457853
4	0x3f801668	1.0006838
5	0xbf801f0b	-1.0009474

fc3.bias f4 [2]
0	0x3f800bda	1.0003617
1	0x3ef39954	0.47577918
